…
    "title": "PyTorch Hyperparameter Tuning — A Tutorial for spotPython",
    "section": "Get SPOT Results",
    "text": "Get SPOT Results\nThe architecture of the spotPython model can be obtained by the following code:\n\nX = spot_tuner.to_all_dim(spot_tuner.min_X.reshape(1,-1))\nmodel_spot = get_one_core_model_from_X(X, fun_control)\nmodel_spot\n\nFirst, the numerical representation of the hyperparameters are obtained, i.e., the numpy array X is generated. This array is then used to generate the model model_spot by the function get_one_core_model_from_X. The model model_spot has the following architecture:\nNet_CIFAR10(\n  (conv1): Conv2d(3, 6, kernel_size=(5, 5), stride=(1, 1))\n  (pool): MaxPool2d(kernel_size=2, stride=2, padding=0, dilation=1, ceil_mode=False)\n  (conv2): Conv2d(6, 16, kernel_size=(5, 5), stride=(1, 1))\n  (fc1): Linear(in_features=400, out_features=64, bias=True)\n  (fc2): Linear(in_features=64, out_features=32, bias=True)\n  (fc3): Linear(in_features=32, out_features=10, bias=True)\n)"
  },
  {
    "objectID": "bart23e.html#get-default-hyperparameters",
    "href": "bart23e.html#get-default-hyperparameters",
    "title": "PyTorch Hyperparameter Tuning — A Tutorial for spotPython",
    "section": "Get Default Hyperparameters",
    "text": "Get Default Hyperparameters\nIn a similar manner as in Section 4.10, the default hyperparameters can be obtained.\n\nvalues_default = get_default_values(fun_control)\nvalues_default = transform_hyper_parameter_values(fun_control=fun_control, hyper_parameter_values=values_default)\nprint(values_default)\nmodel_default = fun_control[\"core_model\"](**values_default)\nprint(model_default)\n\nThe corresponding default model has the following architecture:\nNet_CIFAR10(\n  (conv1): Conv2d(3, 6, kernel_size=(5, 5), stride=(1, 1))\n  (pool): MaxPool2d(kernel_size=2, stride=2, padding=0, dilation=1, ceil_mode=False)\n  (conv2): Conv2d(6, 16, kernel_size=(5, 5), stride=(1, 1))\n  (fc1): Linear(in_features=400, out_features=32, bias=True)\n  (fc2): Linear(in_features=32, out_features=32, bias=True)\n  (fc3): Linear(in_features=32, out_features=10, bias=True)\n)"
  },
  {
    "objectID": "bart23e.html#evaluation-of-the-tuned-architecture",
    "href": "bart23e.html#evaluation-of-the-tuned-architecture",
    "title": "PyTorch Hyperparameter Tuning — A Tutorial for spotPython",
    "section": "Evaluation of the Tuned Architecture",
    "text": "Evaluation of the Tuned Architecture\nThe method train_save takes a
…
