…
    "text": "Get SPOT Results\nThe architecture of the spotPython model can be obtained by the following code:\n\nfrom spotPython.hyperparameters.values import get_one_core_model_from_X\nX = spot_tuner.to_all_dim(spot_tuner.min_X.reshape(1,-1))\nmodel_spot = get_one_core_model_from_X(X, fun_control)\nmodel_spot\n\nFirst, the numerical representation of the hyperparameters are obtained, i.e., the numpy array X is generated. This array is then used to generate the model model_spot by the function get_one_core_model_from_X. The model model_spot has the following architecture:\nNet_CIFAR10(\n  (conv1): Conv2d(3, 6, kernel_size=(5, 5), stride=(1, 1))\n  (pool): MaxPool2d(kernel_size=2, stride=2, padding=0, dilation=1,\n    ceil_mode=False)\n  (conv2): Conv2d(6, 16, kernel_size=(5, 5), stride=(1, 1))\n  (fc1): Linear(in_features=400, out_features=64, bias=True)\n  (fc2): Linear(in_features=64, out_features=32, bias=True)\n  (fc3): Linear(in_features=32, out_features=10, bias=True)\n)"
  },
  {
    "objectID": "14_spot_ray_hpt_torch_cifar10.html#get-default-hyperparameters",
    "href": "14_spot_ray_hpt_torch_cifar10.html#get-default-hyperparameters",
    "title": "PyTorch Hyperparameter Tuning — A Tutorial for spotPython",
    "section": "Get Default Hyperparameters",
    "text": "Get Default Hyperparameters\nIn a similar manner as in Section 16.1, the default hyperparameters can be obtained.\n\n# fun_control was modified, we generate a new one with the original \n# default hyperparameters\nfrom spotPython.hyperparameters.values import get_one_core_model_from_X\nfc = fun_control\nfc.update({\"core_model_hyper_dict\":\n    hyper_dict[fun_control[\"core_model\"].__name__]})\nmodel_default = get_one_core_model_from_X(X_start, fun_control=fc)\n\nThe corresponding default model has the following architecture:\nNet_CIFAR10(\n  (conv1): Conv2d(3, 6, kernel_size=(5, 5), stride=(1, 1))\n  (pool): MaxPool2d(kernel_size=2, stride=2, padding=0, dilation=1,\n    ceil_mode=False)\n  (conv2): Conv2d(6, 16, kernel_size=(5, 5), stride=(1, 1))\n  (fc1): Linear(in_features=400, out_features=32, bias=True)\n  (fc2): Linear(in_features=32, out_features=32, bias=True)\n  (fc3): Linear(in_features=32, out_features=10, bias=True)\n)"
  },
  {
    "objectID": "14_spot_ray_hpt_torch_cifar10.html#evaluation-of-the-default-architecture",
    "href": "14_spot_ray_hpt_torch_cifar10.html#evaluation-of-the-default-architecture",
    "title": "PyTorch Hyperparameter Tuning — A Tutorial for spotPython",
    "section": "Evaluation of the Default Architecture",
    "text": "Evaluation of the
…
