…
importance(threshold=0.025, filename=\"./figures/\" + experiment_name+\"_importance.png\")\n\n\n\n\nVariable importance plot, threshold 0.025.\n\n\n\n\n\n\n11.10.2 Get the Tuned Architecture (SPOT Results)\nThe architecture of the spotPython model can be obtained by the following code:\n\nfrom spotPython.hyperparameters.values import get_one_core_model_from_X\nX = spot_tuner.to_all_dim(spot_tuner.min_X.reshape(1,-1))\nmodel_spot = get_one_core_model_from_X(X, fun_control)\nmodel_spot\n\nNet_fashionMNIST(\n  (flatten): Flatten(start_dim=1, end_dim=-1)\n  (linear_relu_stack): Sequential(\n    (0): Linear(in_features=784, out_features=32, bias=True)\n    (1): ReLU()\n    (2): Linear(in_features=32, out_features=16, bias=True)\n    (3): ReLU()\n    (4): Linear(in_features=16, out_features=10, bias=True)\n  )\n)\n\n\n\n\n11.10.3 Get Default Hyperparameters\n\nfc = fun_control\nfc.update({\"core_model_hyper_dict\":\n    hyper_dict[fun_control[\"core_model\"].__name__]})\nmodel_default = get_one_core_model_from_X(X_start, fun_control=fc)\nmodel_default\n\nNet_fashionMNIST(\n  (flatten): Flatten(start_dim=1, end_dim=-1)\n  (linear_relu_stack): Sequential(\n    (0): Linear(in_features=784, out_features=32, bias=True)\n    (1): ReLU()\n    (2): Linear(in_features=32, out_features=32, bias=True)\n    (3): ReLU()\n    (4): Linear(in_features=32, out_features=10, bias=True)\n  )\n)\n\n\n\n\n11.10.4 Evaluation of the Default and the Tuned Architectures\nThe method train_tuned takes a model architecture without trained weights and trains this model with the train data. The train data is split into train and validation data. The validation data is used for early stopping. The trained model weights are saved as a dictionary.\n\
…
|         0.00 |         |\n\n\n\n12.10.1 Show variable importance\n\nspot_tuner.plot_importance(threshold=0.025, filename=\"./figures/\" + experiment_name+\"_importance.png\")\n\n\n\n\nVariable importance plot, threshold 0.025.\n\n\n\n\n\n\n12.10.2 Get the Tuned Architecture (SPOT Results)\nThe architecture of the spotPython model can be obtained by the following code:\n\nfrom spotPython.hyperparameters.values import get_one_core_model_from_X\nX = spot_tuner.to_all_dim(spot_tuner.min_X.reshape(1,-1))\nmodel_spot = get_one_core_model_from_X(X, fun_control)\nmodel_spot\n\nNet_CIFAR10(\n  (conv1): Conv2d(3, 6, kernel_size=(5, 5), stride=(1, 1))\n  (pool): MaxPool2d(kernel_size=2, stride=2, padding=0, dilation=1, ceil_mode=False)\n  (conv2): Conv2d(6, 16, kernel_size=(5, 5), stride=(1, 1))\n  (fc1): Linear(in_features=400, out_features=32, bias=True)\n  (fc2): Linear(in_features=32, out_features=16, bias=True)\n  (fc3): Linear(in_features=16, out_features=10, bias=True)\n)\n\n\n\n\n12.10.3 Evaluation of the Tuned Architecture\n\nfrom spotPython.torch.traintest import (\n    train_tuned,\n    test_tuned,\n    )\n\n\ntrain_tuned(net=model_spot, train_dataset=train,\n        loss_function=fun_control[\"loss_function\"],\n        metric=fun_control[\"metric_torch\"],\n        shuffle=True,\n        device = fun_control[\"de
…
 the Tuned Architecture (SPOT Results)\nThe architecture of the spotPython model can be obtained as follows. First, the numerical representation of the hyperparameters are obtained, i.e., the numpy array X is generated. This array is then used to generate the model model_spot by the function get_one_core_model_from_X. The model model_spot has the following architecture:\n\nfrom spotPython.hyperparameters.values import get_one_core_model_from_X\nX = spot_tuner.to_all_dim(spot_tuner.min_X.reshape(1,-1))\nmodel_spot = get_one_core_model_from_X(X, fun_control)\nmodel_spot\n\nNet_CIFAR10(\n  (conv1): Conv2d(3, 6, kernel_size=(5, 5), stride=(1, 1))\n  (pool): MaxPool2d(kernel_size=2, stride=2, padding=0, dilation=1, ceil_mode=False)\n  (conv2): Conv2d(6, 16, kernel_size=(5, 5), stride=(1, 1))\n  (fc1): Linear(in_features=400, out_features=128, bias=True)\n  (fc2): Linear(in_features=128, out_features=256, bias=True)\n  (fc3): Linear(in_features=256, out_features=10, bias=True)\n)\n\n\n\n\n14.10.2 Get Default Hyperparameters\nIn a similar manner as in Section 14.10.1, the default hyperparameters can be obtained.\n\n# fun_control was modified, we generate a new one with the original \n# default hyperparameters\nfrom spotPython.hyperparameters.values import get_one_core_model_from_X\nfc = fun_control\nfc.update({\"core_model_hyper_dict\":\n    hyper_dict[fun_control[\"core_model\"].__name__]})\nmodel_default = get_one_core_model_from_X(X_start, fun_control=fc)\nmodel_default\n\nNet_CIFAR10(\n  (conv1): Conv2d(3, 6, kernel_size=(5, 5), stride=(1, 1))\n  (pool): MaxPool2d(kernel_size=2, stride=2, padding=0, dilation=1, ceil_mode=False)\n  (conv2): Conv2d(6, 16, kernel_size=(5, 5), stride=(1, 1))\n  (fc1): Linear(in_features=400, out_features=32, bias=True)\n  (fc2): Linear(in_features=32, out_features=32, bias=True)\n  (fc3): Linear(in_features=32, out_features=10, bias=True)\n)\n\n\n\n\n14.10.3 Evaluation of the Default Architecture\nThe method train_tuned takes a model architecture without trained weights and trains this model with the train data. The train data is split into train and validation data. The validation data is used for early stopping. The trained model weights are saved as a dictionary.\nThis evaluation is si
…
     |         0.00 |         |\n| sgd_momentum | float  | 0.0       |     0.9 |     0.9 |                0.9 | None                  |         0.00 |         |\n\n\n\nspot_tuner.plot_importance(threshold=0.025,\n    filename=\"./figures/\" + experiment_name+\"_importance.png\")\n\n\n\n\nVariable importance plot, threshold 0.025.\n\n\n\n\n\n20.10.1 Get the Tuned Architecture\n\nfrom spotPython.hyperparameters.values import get_one_core_model_from_X\nX = spot_tuner.to_all_dim(spot_tuner.min_X.reshape(1,-1))\nmodel_spot = get_one_core_model_from_X(X, fun_control)\nmodel_spot\n\nNet_vbdp(\n  (fc1): Linear(in_features=6112, out_features=4096, bias=True)\n  (fc2): Linear(in_features=4096, out_features=2048, bias=True)\n  (fc3): Linear(in_features=2048, out_features=1024, bias=True)\n  (fc4): Linear(in_features=1024, out_features=512, bias=True)\n  (fc5): Linear(in_features=512, out_features=11, bias=True)\n  (relu): ReLU()\n  (softmax): Softmax(dim=1)\n  (dropout1): Dropout(p=0.6759063718076167, inplace=False)\n  (dropout2): Dropout(p=0.33795318590380835, inplace=False)\n)\n\n\n\n\n20.10.2 Evaluation of the Tuned Architecture\n\nfrom spotPython.torch.traintest import (\n    train_tuned,\n    test_tuned,\n    )\ntrain_tuned(net=model_spot, train_dataset=t
…
