…
\n13.14.1 Get SPOT Results\nThe architecture of the spotPython model can be obtained by the following code:\n\nfrom spotPython.hyperparameters.values import get_one_core_model_from_X\nX = spot_tuner.to_all_dim(spot_tuner.min_X.reshape(1,-1))\nmodel_spot = get_one_core_model_from_X(X, fun_control)\nmodel_spot\n\nFirst, the numerical representation of the hyperparameters are obtained, i.e., the numpy array X is generated. This array is then used to generate the model model_spot by the function get_one_core_model_from_X. The model model_spot has the following architecture:\nNet_CIFAR10(\n  (conv1): Conv2d(3, 6, kernel_size=(5, 5), stride=(1, 1))\n  (pool): MaxPool2d(kernel_size=2, stride=2, padding=0, dilation=1,\n    ceil_mode=False)\n  (conv2): Conv2d(6, 16, kernel_size=(5, 5), stride=(1, 1))\n  (fc1): Linear(in_features=400, out_features=64, bias=True)\n  (fc2): Linear(in_features=64, out_features=32, bias=True)\n  (fc3): Linear(in_features=32, out_features=10, bias=True)\n)\n\n\n13.14.2 Get Default Hyperparameters\nIn a similar manner as in Section 13.14.1, the default hyperparameters can be obtained.\n\n# fun_control was modified, we generate a new one with the original \n# default hyperparameters\nfrom spotPython.hyperparameters.values import get_one_core_model_from_X\nfc = fun_control\nfc.update({\"core_model_hyper_dict\":\n    hyper_dict[fun_control[\"core_model\"].__name__]})\nmodel_default = get_one_core_model_from_X(X_start, fun_control=fc)\n\nThe corresponding default model has the following architecture:\nNet_CIFAR10(\n  (conv1): Conv2d(3, 6, kernel_size=(5, 5), stride=(1, 1))\n  (pool): MaxPool2d(kernel_size=2, stride=2, padding=0, dilation=1,\n    ceil_mode=False)\n  (conv2): Conv2d(6, 16, kernel_size=(5, 5), stride=(1, 1))\n  (fc1): Linear(in_features=400, out_features=32, bias=True)\n  (fc2): Linear(in_features=32, out_features=32, bias=True)\n  (fc3): Linear(in_features=32, out_features=10, bias=True)\n)\n\n\n13.14.3 Evaluation of the Default Architecture\nThe method train_tuned takes a model architecture without trained weights and trains this model with the train data. The train data is split into train and validation data. The validation data is used for early stopping. The trained model weights are saved as a dictionary.\nThis evaluation is simila
…
