…
    "href": "11_spot_hpt_torch_fashion_mnist.html#sec-get-spot-results-11",
    "title": "11  Hyperparameter Tuning: PyTorch With fashionMNIST Data Using Hold-out Data Sets",
    "section": "11.9 Get SPOT Results",
    "text": "11.9 Get SPOT Results\nThe architecture of the spotPython model can be obtained by the following code:\n\nfrom spotPython.hyperparameters.values import get_one_core_model_from_X\nX = spot_tuner.to_all_dim(spot_tuner.min_X.reshape(1,-1))\nmodel_spot = get_one_core_model_from_X(X, fun_control)\nmodel_spot\n\nNet_fashionMNIST(\n  (flatten): Flatten(start_dim=1, end_dim=-1)\n  (linear_relu_stack): Sequential(\n    (0): Linear(in_features=784, out_features=256, bias=True)\n    (1): ReLU()\n    (2): Linear(in_features=256, out_features=256, bias=True)\n    (3): ReLU()\n    (4): Linear(in_features=256, out_features=10, bias=True)\n  )\n)"
  },
  {
    "objectID": "11_spot_hpt_torch_fashion_mnist.html#get-default-hyperparameters",
    "href": "11_spot_hpt_torch_fashion_mnist.html#get-default-hyperparameters",
    "title": "11  Hyperparameter Tuning: PyTorch With fashionMNIST Data Using Hold-out Data Sets",
    "section": "11.10 Get Default Hyperparameters",
    "text": "11.10 Get Default Hyperparameters\n\nfrom spotPython.hyperparameters.values import get_one_core_model_from_X\nfc = fun_control\nfc.update({\"core_model_hyper_dict\":\n    hyper_dict[fun_control[\"core_model\"].__name__]})\nmodel_default = get_one_core_model_from_X(X_start, fun_control=fc)\nmodel_default\n\nNet_fashionMNIST(\n  (flatten): Flatten(start_dim=1, end_dim=-1)\n  (linear_relu_stack): Sequential(\n    (0): Linear(in_features=784, out_features=32, bias=True)\n    (1): ReLU()\n    (2): Linear(in_features=32, out_features=32, bias=True)\n    (3): ReLU()\n    (4): Linear(in_features=32, out_features=10, bias=True)\n  )\n)"
  },
  {
    "objectID": "11_spot_hpt_torch_fashion_mnist.html#evaluation-of-the-default-and-the-tuned-architectures",
    "href": "11_spot_hpt_torch_fashion_mnist.html#evaluation-of-the-default-and-the-tuned-architectures",
    "title": "11  Hyperparameter Tuning: PyTorch With fashionMNIST Data Using Hold-out Data Sets",
    "section": "11.11 Evaluation of the Default and the Tuned Architectures",
…
    "objectID": "12_spot_hpt_torch_cifar10.html#sec-get-spot-results-12",
    "href": "12_spot_hpt_torch_cifar10.html#sec-get-spot-results-12",
    "title": "12  Hyperparameter Tuning: PyTorch wth cifar10 Data",
    "section": "13.2 Get the Tuned Architecture",
    "text": "13.2 Get the Tuned Architecture\nThe architecture of the spotPython model can be obtained by the following code:\n\nfrom spotPython.hyperparameters.values import get_one_core_model_from_X\nX = spot_tuner.to_all_dim(spot_tuner.min_X.reshape(1,-1))\nmodel_spot = get_one_core_model_from_X(X, fun_control)\nmodel_spot\n\nNet_CIFAR10(\n  (conv1): Conv2d(3, 6, kernel_size=(5, 5), stride=(1, 1))\n  (pool): MaxPool2d(kernel_size=2, stride=2, padding=0, dilation=1, ceil_mode=False)\n  (conv2): Conv2d(6, 16, kernel_size=(5, 5), stride=(1, 1))\n  (fc1): Linear(in_features=400, out_features=256, bias=True)\n  (fc2): Linear(in_features=256, out_features=128, bias=True)\n  (fc3): Linear(in_features=128, out_features=10, bias=True)\n)"
  },
  {
    "objectID": "12_spot_hpt_torch_cifar10.html#evaluation-of-the-tuned-architecture",
    "href": "12_spot_hpt_torch_cifar10.html#evaluation-of-the-tuned-architecture",
    "title": "12  Hyperparameter Tuning: PyTorch wth cifar10 Data",
    "section": "13.3 Evaluation of the Tuned Architecture",
    "text": "13.3 Evaluation of the Tuned Ar
…
the function plot_importance. The following code generates the importance plot from Figure 14.5.\n\nspot_tuner.plot_importance(threshold=0.025,\n    filename=\"./figures/\" + experiment_name+\"_importance.png\")\n\n\n\n\n\n\n\nFigure 13.4: Variable importance\n\n\n\n13.14.1 Get SPOT Results\nThe architecture of the spotPython model can be obtained by the following code:\n\nfrom spotPython.hyperparameters.values import get_one_core_model_from_X\nX = spot_tuner.to_all_dim(spot_tuner.min_X.reshape(1,-1))\nmodel_spot = get_one_core_model_from_X(X, fun_control)\nmodel_spot\n\nNet_CIFAR10(\n  (conv1): Conv2d(3, 6, kernel_size=(5, 5), stride=(1, 1))\n  (pool): MaxPool2d(kernel_size=2, stride=2, padding=0, dilation=1, ceil_mode=False)\n  (conv2): Conv2d(6, 16, kernel_size=(5, 5), stride=(1, 1))\n  (fc1): Linear(in_features=400, out_features=64, bias=True)\n  (fc2): Linear(in_features=64, out_features=512, bias=True)\n  (fc3): Linear(in_features=512, out_features=10, bias=True)\n)\n\n\nFirst, the numerical representation of the hyperparameters are obtained, i.e., the numpy array X is generated. This array is then used to generate the model model_spot by the function get_one_core_model_from_X. The model model_spot has the following architecture:\nNet_CIFAR10(\n  (conv1): Conv2d(3, 6, kernel_size=(5, 5), stride=(1, 1))\n  (pool): MaxPool2d(kernel_size=2, stride=2, padding=0, dilation=1,\n    ceil_mode=False)\n  (conv2): Conv2d(6, 16, kernel_size=(5, 5), stride=(1, 1))\n  (fc1): Linear(in_features=400, out_features=64, bias=True)\n  (fc2): Linear(in_features=64, out_features=32, bias=True)\n  (fc3): Linear(in_features=32, out_features=10, bias=True)\n)\n\n\n13.14.2 Get Default Hyperparameters\nIn a similar manner as in Section 13.14.1, the default hyperparameters can be obtained.\n\n# fun_control was modified, we generate a new one with the original \n# default hyperparameters\nfrom spotPython.hyperparameters.values import get_one_core_model_from_X\nfc = fun_control\nfc.update({\"core_model_hyper_dict\":\n    hyper_dict[fun_control[\"core_model\"].__name__]})\nmodel_default = get_one_core_model_from_X(X_start, fun_control=fc)\n\nThe corresponding default model has the following architecture:\nNet_CIFAR10(\n  (conv1): Conv2d(3, 6, kernel_size=(5, 5), stride=(1, 1))\n  (pool): MaxPool2d(kernel_size=2, stride=2, padding=0, dilation=1,\n    ceil_mode=False)\n  (conv2): Conv2d(6, 16, kernel_size=(5, 5), stride=(1, 1))\n  (fc1): Linear(in_features=400, out_features=32, bias=True)\n  (fc2): Linear(in_features=32, out_features=32, bias=True)\n  (fc3): Linear(in_features=32, out_features=10, bias=True)\n)\n\n\n13.14.3 Evaluation of the Default Architecture\nThe method train_tuned takes a model architecture without trained weights and trains this model with the train data. The train data is split into train and validation data. The validation data is used for early stopping. The trained model weights are saved as a dictionary.\nThis evaluation is simila
…
    "objectID": "24_spot_torch_regression.html#sec-get-spot-results-24",
    "href": "24_spot_torch_regression.html#sec-get-spot-results-24",
    "title": "14  Hyperparameter Tuning for PyTorch With spotPython: Regression",
    "section": "14.12 Get the Tuned Architecture",
    "text": "14.12 Get the Tuned Architecture\nThe architecture of the spotPython model can be obtained by the following code:\n\nfrom spotPython.hyperparameters.values import get_one_core_model_from_X\nX = spot_tuner.to_all_dim(spot_tuner.min_X.reshape(1,-1))\nmodel_spot = get_one_core_model_from_X(X, fun_control)\nmodel_spot\n\nNet_lin_reg(\n  (fc1): Linear(in_features=10, out_features=128, bias=True)\n  (fc2): Linear(in_features=128, out_features=64, bias=True)\n  (fc3): Linear(in_features=64, out_features=1, bias=True)\n  (relu): ReLU()\n  (softmax): Softmax(dim=1)\n  (dropout1): Dropout(p=0.16343155599701642, inplace=False)\n  (dropout2): Dropout(p=0.08171577799850821, inplace=False)\n)\n\n\nFirst, the numerical representation of the hyperparameters are obtained, i.e., the numpy array X is generated. This array is then used to generate the model model_spot by the function get_one_core_model_from_X. The model model_spot has the following architecture:\nNet_lin_reg(\n  (fc1): Linear(in_features=10, out_features=64, bias=True)\n  (fc2): Linear(in_features=64, out_features=32, bias=True)\n  (fc3): Linear(in_features=32, out_features=1, bias=True)\n  (relu): ReLU()\n  (softmax): Softmax(dim=1)\n  (dropout1): Dropout(p=0.0, inplace=False)\n  (dropout2): Dropout(p=0.0, inplace=False)\n)"
  },
  {
    "objectID": "24_spot_torch_regression.html#evaluation-of-the-tuned-architecture",
    "href": "24_spot_torch_regression.html#evaluation-of-the-tuned-architecture",
    "title": "14  Hyperparameter Tuning for PyTorch With spotPython: Regression",
…
    0.9 | None                  |         0.00 |         |\n\n\n\nspot_tuner.plot_importance()"
  },
  {
    "objectID": "25_spot_torch_vbdp.html#sec-get-spot-results-12",
    "href": "25_spot_torch_vbdp.html#sec-get-spot-results-12",
    "title": "15  Hyperparameter Tuning: VBDP",
    "section": "17.4 Get the Tuned Architecture",
    "text": "17.4 Get the Tuned Architecture\n\nfrom spotPython.hyperparameters.values import get_one_core_model_from_X\nX = spot_tuner.to_all_dim(spot_tuner.min_X.reshape(1,-1))\nmodel_spot = get_one_core_model_from_X(X, fun_control)\nmodel_spot\n\nNet_vbdp(\n  (fc1): Linear(in_features=6112, out_features=128, bias=True)\n  (fc2): Linear(in_features=128, out_features=64, bias=True)\n  (fc3): Linear(in_features=64, out_features=32, bias=True)\n  (fc4): Linear(in_features=32, out_features=16, bias=True)\n  (fc5): Linear(in_features=16, out_features=11, bias=True)\n  (relu): ReLU()\n  (softmax): Softmax(dim=1)\n  (dropout1): Dropout(p=0.37306669346546995, inplace=False)\n  (dropout2): Dropout(p=0.18653334673273497, inplace=False)\n)\n\n\n\nfrom spotPython.torch.traintest import (\n    train_tuned,\n    test_tuned,\n    )\ntrain_tuned(net=model_spot, train_dataset=train,\n        loss_function=fun_control[\"loss_fu
…
