…
 the Tuned Architecture (SPOT Results)\nThe architecture of the spotPython model can be obtained as follows. First, the numerical representation of the hyperparameters are obtained, i.e., the numpy array X is generated. This array is then used to generate the model model_spot by the function get_one_core_model_from_X. The model model_spot has the following architecture:\n\nfrom spotPython.hyperparameters.values import get_one_core_model_from_X\nX = spot_tuner.to_all_dim(spot_tuner.min_X.reshape(1,-1))\nmodel_spot = get_one_core_model_from_X(X, fun_control)\nmodel_spot\n\nNet_CIFAR10(\n  (conv1): Conv2d(3, 6, kernel_size=(5, 5), stride=(1, 1))\n  (pool): MaxPool2d(kernel_size=2, stride=2, padding=0, dilation=1, ceil_mode=False)\n  (conv2): Conv2d(6, 16, kernel_size=(5, 5), stride=(1, 1))\n  (fc1): Linear(in_features=400, out_features=64, bias=True)\n  (fc2): Linear(in_features=64, out_features=512, bias=True)\n  (fc3): Linear(in_features=512, out_features=10, bias=True)\n)\n\n\n\n\n12.10.2 Get Default Hyperparameters\nIn a similar manner as in Section 12.10.1, the default hyperparameters can be obtained.\n\n# fun_control was modified, we generate a new one with the original \n# default hyperparameters\nfrom spotPython.hyperparameters.values import get_one_core_model_from_X\nfrom spotPython.hyperparameters.values import get_default_hyperparameters_as_array\nX_start = get_default_hyperparameters_as_array(fun_control)\nmodel_default = get_one_core_model_from_X(X_start, fun_control)\nmodel_default\n\nNet_CIFAR10(\n  (conv1): Conv2d(3, 6, kernel_size=(5, 5), stride=(1, 1))\n  (pool): MaxPool2d(kernel_size=2, stride=2, padding=0, dilation=1, ceil_mode=False)\n  (conv2): Conv2d(6, 16, kernel_size=(5, 5), stride=(1, 1))\n  (fc1): Linear(in_features=400, out_features=32, bias=True)\n  (fc2): Linear(in_features=32, out_features=32, bias=True)\n  (fc3): Linear(in_features=32, out_features=10, bias=True)\n)\n\n\n\n\n12.10.3 Evaluation of the Default Architecture\nThe method train_tuned takes a model architecture without trained weights and trains this model with the train data. The train data is split into train and validation data. The validation data is used for early stopping. The trained model weights are saved as a dictionary.\nThis evaluation is si
…
etwork:\n\nfrom spotPython.torch.activation import Sigmoid, Tanh, ReLU, LeakyReLU, ELU, Swish\nact_fn_by_name = {\"sigmoid\": Sigmoid, \"tanh\": Tanh, \"relu\": ReLU, \"leakyrelu\": LeakyReLU, \"elu\": ELU, \"swish\": Swish}\n\n\nfrom spotPython.hyperparameters.values import get_one_config_from_X\nX = spot_tuner.to_all_dim(spot_tuner.min_X.reshape(1,-1))\nconfig = get_one_config_from_X(X, fun_control)\nmodel = fun_control[\"core_model\"](**config, _L_in=64, _L_out=11)\nmodel\n\nNetLightBase(\n  (train_mapk): MAPK()\n  (valid_mapk): MAPK()\n  (test_mapk): MAPK()\n  (layers): Sequential(\n    (0): Linear(in_features=64, out_features=64, bias=True)\n    (1): ReLU()\n    (2): Dropout(p=0.0, inplace=False)\n    (3): Linear(in_features=64, out_features=32, bias=True)\n    (4): ReLU()\n    (5): Dropout(p=0.0, inplace=False)\n    (6): Linear(in_features=32, out_features=32, bias=True)\n    (7): ReLU()\n    (8): Dropout(p=0.0, inplace=False)\n    (9): Linear(in_features=32, out_features=16, bias=True)\n    (10): ReLU()\n    (11): Dropout(p=0.0, inplace=False)\n    (12): Linear(in_features=16, out_features=11, bias=True)\n  )\n)\n\n\n\nfrom spotPython.utils.eda import visualize_activations\nvisualize_activations(model, color=f\"C{0}\")"
  },
  {
    "objectID": "31_spot_lightning_csv.html#submission",
    "href": "31_spot_lightning_csv.html#submission",
    "title": "17  HPT PyTorch Lightning: VBDP",
    "section": "17.11 Submission",
    "text": "17.11 Submission\n\nimp
…
